Handwriting/Assets/Resource/Model/model.onnx (onnx, 23210 bytes, 6 tensors)

W0__29 f4 [1, 128, 2]
000000 d5 ac 1b be eb ea 2e be 33 51 c4 bd 34 9f 11 3e
       -0.15202649 -0.17081802 -0.095858 0.14220887
000010 71 65 09 3e c1 20 22 be fe 1c 1a 3d 34 20 3c 3e
       0.13417603 -0.15832807 0.037625305 0.1837166
000020 0e 97 1b 3e 43 e2 0f be 16 47 bb bd 6f ce 03 be
       0.15194342 -0.14051156 -0.09144418 -0.12871717
000030 d5 de 3e be e5 ea 6e be ff 2a b8 3d 86 df 0d 3e
       -0.18639691 -0.23331793 0.08992576 0.13854799
000040 34 85 e6 bd b0 98 62 be 8a 2f 2c 3e 96 0f 2d be
       -0.11255875 -0.22128558 0.1681501 -0.16900477
000050 b9 47 1c be aa df 41 be aa a4 16 3e 3f af 33 bd
       -0.15261735 -0.18932977 0.14711252 -0.0438683
000060 85 50 7a bd 55 b2 25 be 0b 9b 5b 3d 34 5e d5 3d
       -0.061111946 -0.1618131 0.053614657 0.104183584
000070 40 6d 5f 3c f1 a2 d1 3d 01 55 36 bd b9 49 46 bd
       0.013636887 0.10236157 -0.04451466 -0.04841015
000080 f2 34 9e bd 36 23 36 be 93 88 0e be df 97 6c bd
       -0.07724942 -0.1778687 -0.13919286 -0.057762023
000090 55 af d0 3c 8a e2 9a bc c2 32 0a 3e 62 18 07 be
       0.02547423 -0.01890685 0.13495925 -0.13192895
0000a0 ca 8a 32 bc 54 fe 89 be 9b a1 36 3e ee e5 97 3d
       -0.010897348 -0.2695185 0.17835085 0.074169025
0000b0 4e eb ba 3d 51 85 7e bd 59 86 42 be 6c 9f e7 bd
       0.09126912 -0.06213886 -0.18996562 -0.11309704
0000c0 68 e5 1f be e0 35 6f bd 10 e1 6e bc b9 07 2c be
       -0.15614855 -0.05840099 -0.014580026 -0.16799821
0000d0 80 0b ce bd 9f ce cc 3d 2e f6 06 3e 88 46 2e be
       -0.10060787 0.10000347 0.13179848 -0.17019093
0000e0 53 88 56 3e a6 e4 67 3d c0 84 72 be af e6 ef 3c
       0.20950441 0.05661454 -0.23683453 0.029284803
0000f0 54 4e 9d 3c 0a 15 e5 bd c6 c0 c0 3d 9f 3d dd bc
       0.019202389 -0.111856535 0.094117686 -0.027006922
000100 da da 3d 3e b6 dc 25 3d 05 11 52 bd d2 04 14 3e
       0.18540516 0.04049369 -0.051285762 0.14454964
000110 25 9a 12 be e5 96 ad bc a1 34 39 be 49 2d 88 bc
       -0.14316614 -0.021190116 -0.18086483 -0.016623156
000120 e0 a2 10 3e 84 a5 e5 bc 48 0e 03 3e f4 86 68 3d
       0.14124632 -0.028033026 0.12798417 0.056769326
000130 f3 56 5e bd 1e 27 16 be 41 8f 91 bc 42 ae d5 bd
       -0.05428214 -0.1466336 -0.017768504 -0.10433628
000140 8b ba 05 3e e8 58 bf bd 36 2e 68 bd 30 39 b3 ba
       0.13059442 -0.093431294 -0.056684695 -0.0013673659
000150 d5 69 42 3e 14 6c 16 bd 43 1c 1f 3e 0c e7 96 3c
       0.18985684 -0.036724165 0.15538125 0.018420719
000160 8f 96 a3 bd 95 dd b3 3a 70 6d 42 bb 4e a4 50 bd
       -0.07987701 0.0013722653 -0.002966728 -0.050937943
000170 0f e5 c4 bd 62 90 11 3e f4 fc 45 be 3f cd 1d be
       -0.09614002 0.14215234 -0.19334775 -0.15410326
000180 a1 2b b5 bd 25 ab 65 bd df 88 18 3e 45 dc 21 be
       -0.08846212 -0.05607142 0.14895962 -0.15806682
000190 17 a5 67 3d 1f 37 84 3d af 2f 6c be 25 49 0a be
       0.056553926 0.06455826 -0.23065065 -0.13504465
0001a0 9a 91 0e 3e ca ee f9 3d ca 52 d6 3d e6 4a a2 3d
       0.1392273 0.122037485 0.104650095 0.07924442
0001b0 1b df ae bd 29 68 48 bd 27 36 05 be 63 7d 2b 3d
       -0.08538648 -0.04892746 -0.13008939 0.041867625
0001c0 ef b4 11 be 92 f3 99 3c 86 ec ad bc 89 54 07 bc
       -0.14229177 0.018792901 -0.021230947 -0.008259901
0001d0 5e 02 26 be 5d 3c 07 be 29 be ba 3d 22 f6 31 bd
       -0.1621184 -0.1320662 0.091183014 -0.04344762
0001e0 bc ed 14 3e 59 1a cb 3c 64 e5 fe 3d 64 91 e6 bd
       0.14543813 0.024792837 0.124460965 -0.112582
0001f0 dd ad d9 3d 70 c6 1d 3d a4 22 df bd 16 b6 58 3d
       0.10628865 0.038519323 -0.10895279 0.052908026
000200 bf ec e4 bd 83 55 0c 3e 2f d7 cd bd c9 27 95 3c
       -0.11177968 0.13704495 -0.10050809 0.018207448
000210 bd 62 61 3e 48 6b 0b 3e 65 92 36 be be 73 17 3e
       0.22010322 0.13615143 -0.17829283 0.14790246
000220 43 f0 3f be f5 54 c9 3d d4 8b 22 3e f3 a1 9d 3d
       -0.18743996 0.098306574 0.15873653 0.07696905
000230 e8 e9 18 be 99 dd 89 3d d0 d0 51 bd c2 a7 e0 3d
       -0.14932978 0.067317195 -0.05122453 0.10969497
000240 8c b6 2a be 29 d9 2f be ab b9 8e bd f6 9e 12 be
       -0.16671199 -0.17172684 -0.06969007 -0.14318451
000250 f2 66 be bd cf e3 9a bd 3f b5 4c be 56 9f 56 be
       -0.09296979 -0.07562982 -0.19991015 -0.2095922
000260 a7 9f 4d 3e 7b 3f 31 3e bb af 28 3e 48 28 03 be
       0.20080434 0.17309372 0.16473286 -0.12808335
000270 8e b0 c0 3d 4f 12 09 3e 3a e0 13 be 81 4f 2c 3e
       0.09408675 0.1338589 -0.14441004 0.16827203
000280 99 0c c0 3d 36 5e 5f bd 6d d7 67 be 21 63 c8 bd
       0.09377403 -0.054533206 -0.22640772 -0.09784532
000290 b2 6f 0a 3e 3a 05 9f 3d e0 bb 04 be b3 5f 30 3e
       0.13519171 0.07764669 -0.12962294 0.17224006
0002a0 29 6c 9b bd a9 cf 0e 3e 93 d9 25 3e 7d 3f 75 bd
       -0.07588989 0.13946404 0.16196279 -0.059875
0002b0 45 82 60 bd 81 e5 cb 3d 32 3c 0b 3d 16 ed e7 bd
       -0.054811735 0.09955884 0.033992954 -0.113245174
0002c0 3c e2 ad bd 62 b3 3c be 8b 8a 8a 3c 6e e0 2d be
       -0.084904164 -0.18427804 0.016911766 -0.16980144
0002d0 88 c5 47 3d ab ec 0a be 43 dd 13 be 1c e5 28 be
       0.048772365 -0.13566844 -0.14439873 -0.16493648
0002e0 ac 7e 26 3e 98 09 ae bd 32 83 14 3e c5 a2 57 be
       0.16259259 -0.084979236 0.14503172 -0.21058185
0002f0 7a 4f 40 bb dd 52 09 3d 6c f0 50 3d 17 99 c7 bc
       -0.0029344247 0.03352629 0.051010534 -0.024364991
000300 85 37 ee 3b 66 13 e1 bd 35 39 66 be c2 48 32 3d
       0.007269802 -0.10990028 -0.2248276 0.04352642
000310 71 9f 2e 3e ef d4 ca 3d 4b c3 6f be 68 63 25 be
       0.1705301 0.09903895 -0.23414342 -0.16151202
000320 89 45 35 be 37 a6 0c 3e 17 73 be 3d d0 57 64 bd
       -0.17702307 0.13735281 0.092992954 -0.055747807
000330 ce 8f 56 bd 57 cd 0c 3e 17 50 15 be 25 98 dc 3d
       -0.052383237 0.13750206 -0.14581333 0.10771207
000340 92 7d 46 3e ae 12 29 3e f3 a9 3e be 79 bf 01 3e
       0.19383839 0.16511032 -0.18619518 0.12670697
000350 d5 a3 31 bb 9f bf 5d be 46 d9 19 3e 94 ef f3 bd
       -0.0027105708 -0.21655129 0.1502429 -0.1191093
000360 36 16 bc bd 48 a4 b3 bd eb 20 bc 3c 27 a8 4a be
       -0.09183924 -0.087715685 0.022964915 -0.19790708
000370 b8 22 9e bd d1 98 0f be ba 89 a3 3c 69 c3 15 be
       -0.07721466 -0.14023139 0.019963134 -0.14625324
000380 c1 21 cc 3d 2d ff 71 bd 84 7a 5c be 93 27 3c be
       0.099673755 -0.059081245 -0.21531111 -0.18374471
000390 13 31 61 3e 24 04 03 be 33 83 88 bd e8 f7 3a be
       0.21991377 -0.12794548 -0.06665649 -0.18258631
0003a0 0d 8f f7 3c 5c df 58 3c 37 5b 42 3d a4 da 15 3c
       0.03021958 0.013236847 0.04745027 0.009146366
0003b0 56 41 83 3d 51 f4 de bd 58 5e 2e 3e 67 c8 5c bd
       0.06408946 -0.108864434 0.17028177 -0.053902056
0003c0 b5 49 c2 3c 34 3c e9 3d 3d b4 3e be e7 7e 11 3e
       0.023716787 0.11388436 -0.18623443 0.14208566
0003d0 8a 2e 3b 3d ee 5f 1e 3b 23 05 44 be fe 45 2b 3e
       0.04569868 0.0024166065 -0.19142585 0.16725919
0003e0 dc 8c 1b 3e b9 5b 4b 3e 92 aa 02 be 8d a7 56 be
       0.15190452 0.19859208 -0.1276038 -0.20962353
0003f0 b1 79 b2 3d 90 1d 6a bd b5 9f 05 3e 73 2b a8 3c
       0.08714617 -0.0571571 0.13049205 0.02052853

StatefulPartitionedCall/sequential/dense_1/MatMul/ReadVariableOp:0 f4 [7, 1]
000000 c9 67 de 3e 97 0f 2e 3f 69 41 44 3f c3 0e 38 bf
       0.43438557 0.6799254 0.7666231 -0.71897525
000010 69 66 ca be e9 26 ca be 6b b3 1e 3f
       -0.39531258 -0.3948281 0.6199252

StatefulPartitionedCall/sequential/dense/MatMul/ReadVariableOp:0 f4 [32, 7]
000000 c8 23 a9 3e de 2e 80 3e ed 37 65 3e 14 ff 0d 3e
       0.3303511 0.25035757 0.22384615 0.13866836
000010 c3 bb 8f 3e f9 97 17 be b1 2e 51 bb f9 df 50 3e
       0.28072938 -0.14804067 -0.00319187 0.20397939
000020 ed e9 a3 3e 2f 94 b3 be cd b9 1b be a3 94 b0 be
       0.3201441 -0.35073993 -0.15207596 -0.344884
000030 9c 5d 62 be b7 82 3f 3e 1a 56 30 be ee d0 bf 3e
       -0.22106022 0.18702208 -0.17220345 0.37464088
000040 92 dd 4c bd 80 c5 95 bc 00 12 67 3e b6 40 60 3e
       -0.050015993 -0.018282652 0.2256546 0.21899685
000050 6f 99 a5 3e 97 47 65 3e a3 47 36 be cc e3 7b be
       0.32343623 0.2239059 -0.17800765 -0.24598616
000060 e5 6b 69 3d 69 8b bd be 01 ba 94 3e 7b 8e 27 3d
       0.056987662 -0.37020424 0.2904816 0.040907364
000070 44 b5 60 3b b3 d5 79 be b8 33 b1 be d1 5f 2e be
       0.003428773 -0.24397926 -0.3460977 -0.17028739
000080 36 55 86 be 29 63 4f bd 6d c4 3d be bc 32 3e 3e
       -0.26236886 -0.050631676 -0.18531962 0.18574041
000090 dc 80 5e 3e 76 59 76 3e da b8 59 3e 32 42 da be
       0.21728843 0.24057564 0.21261922 -0.42628628
0000a0 4a cf 64 3e 9b fb 96 3e 83 51 13 3e 25 4d 42 be
       0.223447 0.29488835 0.14386563 -0.18974741
0000b0 27 b2 bd 3d 6a 8c 36 3e a0 e3 b0 be 49 6b 84 3e
       0.092624955 0.17827001 -0.34548664 0.25863102
0000c0 f6 59 83 be ca 74 74 3c dd 7e e3 3d 93 77 97 be
       -0.25654572 0.014920423 0.111081816 -0.29583415
0000d0 9b 3a a2 bd e5 1c a4 bd 2b d8 bb 3b 6e 35 ec bb
       -0.07921334 -0.08013324 0.0057325563 -0.0072085178
0000e0 b6 0b fe bc 9d 57 20 be 6b 64 d2 3d 91 fb 91 be
       -0.031011444 -0.15658422 0.102730595 -0.28512242
0000f0 22 e6 a6 be e5 99 b7 3d 5f 3f 02 be eb 6a b3 be
       -0.32597452 0.089649 -0.12719487 -0.3504251
000100 ff fe 87 be 95 94 9f be cd 9d 8c 3e f9 72 91 3e
       -0.26561734 -0.31168047 0.27464142 0.2840803
000110 62 f3 3a 3e 7e 7e c3 be 39 8c 88 be df db 00 be
       0.18256906 -0.38182443 -0.2666948 -0.12583874
000120 f5 0a d4 3e 0e 26 b5 bd e4 e3 d1 be 34 6a 0b 3e
       0.4141461 -0.08845149 -0.4099418 0.13614732
000130 21 da 30 3e c2 de 81 3e ff 87 e9 bc 18 1d 10 3e
       0.1727071 0.25365263 -0.02850723 0.14073598
000140 3f 20 a2 3d ec 13 ca bc 17 e8 9c 3e 24 d6 d7 3e
       0.07916307 -0.024667703 0.3064582 0.42155564
000150 ee b9 72 be 20 62 42 3e a1 7e c4 bd 1e 56 b8 be
       -0.23703739 0.18982744 -0.09594465 -0.36003202
000160 bf e9 56 3c 23 50 ad 3e aa 87 e0 bc 53 1d e2 bd
       0.013117253 0.33850202 -0.02740844 -0.110407494
000170 7f 1c d4 3e 98 26 63 3e 02 b8 2c 3e fe 3e 65 3e
       0.4142799 0.22182691 0.16867068 0.22387311
000180 19 36 79 3e 31 74 31 3e f7 43 ba be 6b 42 ab be
       0.24337043 0.1732948 -0.36379978 -0.3344911
000190 48 62 c5 bd 68 97 e1 bc 69 94 76 be 34 c3 96 be
       -0.09637886 -0.027538016 -0.24080051 -0.29445803
0001a0 c4 33 31 bd d2 46 62 3e b3 6f 96 3d 29 17 db 3e
       -0.04326226 0.22097328 0.07345524 0.42791107
0001b0 52 e0 98 bd fe a5 35 be 70 d9 a9 be bf 9f 2a 3e
       -0.07464661 -0.17739102 -0.33173704 0.16662501
0001c0 1d be 1d 3e 66 58 ff 3d 5c bb 05 3c e1 e2 3f 3e
       0.15404554 0.124680325 0.008162346 0.18738891
0001d0 30 ec 89 3e e4 0d 73 be 12 69 90 be 7a 6a d2 3e
       0.2693801 -0.23735768 -0.28205162 0.4109686
0001e0 14 8c 89 3e 81 9f cd 3e d2 90 fd 3c 65 71 65 3e
       0.26864684 0.40160754 0.030952845 0.22406538
0001f0 9b c0 86 be c7 5a ad 3e 6d 6a 4f 3e 4f a8 bb 3e
       -0.2631882 0.3385832 0.20255442 0.36651847
000200 97 79 9e 3d bb 79 c9 be 1a bc 9c 3e 35 ea 4a 3e
       0.07738035 -0.39350685 0.3061226 0.19815905
000210 06 c0 09 3e d6 96 10 be 4d 5c 3c 3c 88 e7 a5 3e
       0.13452157 -0.1412004 0.011496616 0.32403207
000220 4b a4 94 be 44 52 a9 3e 11 1d 87 3e af 0d 9a be
       -0.29031596 0.33070576 0.26389363 -0.30088565
000230 c0 00 19 3d 13 57 bc bd ca cd 99 be f1 aa b1 3e
       0.03735423 -0.091962956 -0.30039817 0.3470073
000240 0d 77 4e 3e 58 54 82 3e 02 6c b2 3d a1 86 b8 be
       0.20162602 0.25454974 0.08712007 -0.36040214
000250 1d 75 b2 be 5e 1d 45 be e0 50 0c 3e 44 9e ba 3e
       -0.34854975 -0.19249484 0.13702726 0.36448872
000260 6a 4b 98 be ca 55 29 be 4d f4 e9 bd 7e a2 14 be
       -0.29745036 -0.16536632 -0.1142355 -0.14515111
000270 89 b2 bf 3e 12 1d e5 bc 5e 54 db be 3b 25 1e 3e
       0.374409 -0.027967963 -0.42837805 0.1544389
000280 e9 57 a8 3e d4 72 04 3e 54 e7 81 be 5d 4f a9 be
       0.3287957 0.12934428 -0.25371802 -0.33068362
000290 be 31 22 3e e2 b6 42 be e9 0b 81 3e 61 49 1e 3e
       0.15839288 -0.19015077 0.252044 0.1545768
0002a0 55 19 85 bd 43 22 c7 3e 29 ad 35 3d 16 9b 4b bc
       -0.06498972 0.38893327 0.04435459 -0.012427112
0002b0 5c 3e 47 be 42 b2 c1 be fb f6 5b bc 1d 92 c3 be
       -0.19457382 -0.37831312 -0.013425584 -0.38197413
0002c0 03 30 1a 3e c4 23 17 3d d9 b7 c3 3e 49 ce bf be
       0.15057378 0.036899343 0.38226202 -0.3746207
0002d0 c6 05 7b 3c 2e 7c aa be 49 c6 aa be fd 00 c0 bc
       0.015321201 -0.33297867 -0.33354405 -0.023437971
0002e0 33 d2 1f bd dd 94 92 3d 34 f5 fd 3d c5 43 74 3e
       -0.03901882 0.071573 0.124002844 0.23853977
0002f0 b9 5f 9d bc 6b c5 4f 3e 96 78 47 be 6c 08 80 3e
       -0.019210683 0.20290153 -0.19479594 0.25006425
000300 3c 7c 1b be 50 94 c5 3e ad 62 a9 3e 22 72 99 be
       -0.1518411 0.38589716 0.33083096 -0.2996989
000310 18 92 ba be ee c6 c5 3e 19 44 1a be 3f 9c f3 bb
       -0.36439586 0.38628334 -0.1506504 -0.0074343975
000320 24 9b d6 3d b9 0a c2 be e0 7b 79 be c6 eb d4 bd
       0.104788095 -0.37898806 -0.24363661 -0.10396533
000330 52 18 a3 3e 42 7f df 3d 21 95 9a be ae 64 41 be
       0.31854492 0.109129444 -0.301919 -0.18886063
000340 fe 7d 02 be 31 a7 98 be ac ea 02 3e 83 3f 0d be
       -0.12743375 -0.29815057 0.12784833 -0.13793759
000350 9e 65 00 be bb 23 8f 3e 60 68 d3 3b d2 1d 4c 3e
       -0.12538764 0.27956948 0.0064516515 0.1993325
000360 b8 5c 8c be e2 e9 e6 3d f0 82 9b be c6 bc 56 3e
       -0.2741449 0.11275078 -0.30373335 0.20970449
000370 a0 78 75 3e e6 7d c3 bc f2 bc b5 be d6 f8 5d 3e
       0.23971796 -0.023863744 -0.35495716 0.21676955

StatefulPartitionedCall/sequential/dense/BiasAdd/ReadVariableOp:0 f4 [7]
000000 f5 3f 07 3d 62 44 07 3d 9b 41 07 3d d0 dd 06 bd
       0.03301998 0.0330242 0.03302155 -0.03292638
000010 8a 9e 07 bd f3 b1 04 bd 8b 4b 07 3d
       -0.03311018 -0.032396268 0.033031028

R0__30 f4 [1, 128, 32]
000000 a4 4f 4b be 7e c7 69 3e dd a5 64 3d f7 e9 e3 3d
       -0.19854599 0.22830006 0.055822242 0.1112861
000010 73 bd f6 3c 5f 2e 72 3d b2 e7 1c 3e 3e ce 54 3d
       0.030119633 0.059126254 0.1532276 0.0519545
000020 f8 48 f7 3d 9f 8b 40 3e 2e 8c 16 3e 6d 6b 27 3e
       0.120744646 0.18803261 0.14701912 0.16349573
000030 76 bb 6f 3e 69 cc 84 3d bb 86 03 3e 68 3c 84 39
       0.23411354 0.06484301 0.12844364 0.00025222008
000040 0a ff 09 3e 9e da cd 39 f9 32 f6 3d e2 f6 e9 bc
       0.13476196 0.0003926353 0.12021441 -0.028560106
000050 33 50 99 bd 4b c5 6b bd 29 d1 43 3d 5b 47 f5 3d
       -0.07486 -0.0575612 0.047806893 0.119765006
000060 89 ec 21 3e 35 aa ba 3d 25 ce 06 3e b9 da 4d bc
       0.15812887 0.09114496 0.13164575 -0.012564355
000070 72 4e 7e bd 6f bc 62 3d 0f 30 ab 3c fa 7b 5f 3d
       -0.06208653 0.055355486 0.02089694 0.054561593
000080 e2 2c 41 3e f1 60 ab bc 2e 0e d1 3c ac 7a 1d 3e
       0.18864778 -0.020920249 0.025519457 0.15378827
000090 65 78 fd 3c 43 c2 2d bc 98 d5 23 3b 33 4e 48 bd
       0.030941198 -0.010605398 0.0024999138 -0.0489027
0000a0 cb b5 21 3e b5 08 f1 3d ef 08 68 3d 7c 86 1f 3e
       0.15792005 0.11769239 0.056649145 0.15578645
0000b0 b4 24 81 3e 26 ed df 3d 65 fe c7 bd c4 95 e8 3d
       0.25223315 0.10933904 -0.09765319 0.113566905
0000c0 e7 1f ab bb 60 4c 75 3d 68 8e 6b 3d ff 00 45 3e
       -0.005222309 0.05988729 0.057508856 0.19238661
0000d0 ec 29 2e bd 4a 16 fc 3d ec 1f 01 be 51 65 28 bd
       -0.04252045 0.12308939 -0.12609833 -0.041112248
0000e0 2c 2e 2c be b0 ef b3 3d e7 6c fc 3d a9 fa 83 bd
       -0.16814488 0.08785951 0.12325459 -0.06444294
0000f0 a1 7d ce 3b cd be d8 bc 72 8b da bd bc 99 87 3d
       0.006301597 -0.026458168 -0.10671128 0.066211194
000100 2d c2 4c 3d 80 85 8e bd 85 a7 6e bb ae e1 0a 3e
       0.049989868 -0.06959057 -0.0036415767 0.13562652
000110 ab 6d 31 be f6 2b 90 3d 7c cb b2 bd 3d 83 a4 3d
       -0.17326991 0.07039635 -0.08730218 0.08032844
000120 3b f0 8e bb a8 93 d0 bd a8 c9 09 be d6 6a 36 be
       -0.004362134 -0.10184413 -0.13455832 -0.17814192
000130 f7 0d 2d 3e 52 ff 25 bd 3a f6 a2 3d 1e 0d 9a bb
       0.16899858 -0.040526696 0.0795712 -0.0047012707
000140 75 e1 a7 bc 9c 32 84 bd dc 96 aa 3d c6 6a 9e 3d
       -0.020493248 -0.064549655 0.083295554 0.07735209
000150 aa 85 ef 3d 42 19 e0 bc 5a 0f 08 bd 2e fc 55 bc
       0.11695416 -0.027355794 -0.033217765 -0.013060613
000160 44 bb f8 3d ab e1 0f bc a1 12 4c 3d 7d fc 98 bd
       0.12145093 -0.008781831 0.049822453 -0.07470033
000170 7e f2 c6 3c 57 45 4c be a0 9b b1 3c 42 39 09 3d
       0.024285551 -0.19948326 0.021680653 0.03350187
000180 32 a3 37 3c aa c4 62 bc f8 5b 11 3d a8 36 1a be
       0.011208342 -0.013840834 0.0354881 -0.15059912
000190 11 3c 7e 3d f0 87 a6 3c ec 98 af 3c cc 60 79 3d
       0.062069003 0.020328492 0.021435224 0.06088333
0001a0 6f bf ac bd 90 8f 62 bd fa 20 14 bd fa 34 0b 3d
       -0.084349506 -0.055312693 -0.03616426 0.03398607
0001b0 b8 e6 33 3d 95 b9 6f bd f7 45 e7 bd 79 c6 5f 3d
       0.043921202 -0.058526594 -0.112926416 0.054632638
0001c0 fc 03 84 3d 5b 7a 8d 3c 4c 43 09 be 16 98 dd 3d
       0.064460725 0.017270258 -0.13404578 0.10820024
0001d0 78 d6 1f be 8f 63 c5 bd 1d d2 84 3d 6f 16 86 3d
       -0.15609157 -0.0963813 0.064853884 0.065472476
0001e0 fe d4 52 bd a7 07 9a bd ea f3 68 3d 25 6c 67 3e
       -0.051472656 -0.07520991 0.05687324 0.22599848
0001f0 38 bc 2a 3c 00 f2 45 bc 51 2a c2 3c af b1 a9 bd
       0.010420851 -0.012081623 0.023701819 -0.082858436
000200 95 49 51 3e da 99 37 be 38 44 29 bc fd 18 9e 3e
       0.20438226 -0.17929783 -0.010331206 0.3087844
000210 cf c5 24 be 41 14 21 3e b0 7c 4d 3c 7f 1f 03 be
       -0.16091083 0.15730383 0.012541935 -0.12804984
000220 9f fc df 3c 6b f1 d3 3d 7d c5 96 3e 93 f7 24 3e
       0.027342139 0.10348781 0.29447547 0.16110067
000230 61 3c 85 bd cd c6 23 3e 57 0f e2 3d 68 5d 5d 3e
       -0.06505657 0.15993805 0.11038082 0.21617663
000240 34 b6 bc bd b4 26 01 3e d9 37 59 3e 69 e0 f7 3d
       -0.0921444 0.1261242 0.2121271 0.1210335
000250 a5 d5 9c bb 81 56 92 bd 27 53 22 3e 74 a2 22 3e
       -0.0047862106 -0.071454056 0.15852033 0.15882283
000260 b3 c3 25 3c 8a 78 f8 3c 59 0e cb bd a0 54 0c be
       0.010117459 0.030330915 -0.09914846 -0.13704157
000270 aa 44 c8 bd 4e 17 78 3e c8 e6 7d 3d e4 bb 78 bd
       -0.09778722 0.2422764 0.06198767 -0.06072606
000280 e6 3f 42 bc 67 25 48 3e b5 4f b2 3d b6 8b e7 3d
       -0.011856055 0.19545518 0.08706609 0.113059446
000290 b6 df 27 be 6d a0 ed 3d da 0e 15 be 5d e8 2d bd
       -0.16393933 0.116028644 -0.14556447 -0.042457927
0002a0 4f 12 4c 3d de 3f 57 3d 15 5a 8f bd ae 74 86 bc
       0.049822148 0.052551143 -0.06999604 -0.01641306
0002b0 96 0c 03 3e 74 04 c0 3d fa 43 9a 3d 53 83 15 3e
       0.1279777 0.09375849 0.07532497 0.14600877
0002c0 05 a1 1a 3e 44 f3 06 3e d5 6b e5 bd 7b 28 bf 3d
       0.15100487 0.13178736 -0.11202208 0.09333893
0002d0 1d 3d 85 bc af b2 f4 3c bc 7e a0 3d e3 20 7d 3d
       -0.016264493 0.02987036 0.07836673 0.06179894
0002e0 71 40 f4 3c 8e 73 d5 bd 35 02 d5 bd 44 04 14 3d
       0.029815884 -0.10422431 -0.104008116 0.03613688
0002f0 02 a6 ea bd 5f 3b 02 3e 24 ee 91 bc 83 1e 4a bd
       -0.11457445 0.12717961 -0.01781375 -0.049345504
000300 bb 94 86 3d 15 4b c2 bc 31 8d 04 be 62 bd 31 3c
       0.06571337 -0.023717443 -0.12944485 0.010848375
000310 2a 44 41 3d 03 f5 d7 bd a0 8b 90 bd e3 0a 08 bd
       0.047184147 -0.10544779 -0.07057881 -0.033213507
000320 0b 3b 65 bd f1 60 5e 3d cd 2c 3f 3e 6d c9 d6 ba
       -0.05596451 0.05429167 0.18669434 -0.0016386934
000330 dd dc 12 3d 70 68 b2 bd c7 df fa 3d 4c 33 f7 3d
       0.035855163 -0.08711326 0.122497134 0.12070331
000340 24 d7 d0 3d b9 3e 59 3d d7 01 c2 3c 70 f5 4c bd
       0.10197285 0.053038333 0.023682518 -0.050038755
000350 5b 4b bd bd 4f 26 52 3d 67 20 bc 3d 0e 40 9a 3d
       -0.092428885 0.051306065 0.09185868 0.07531749
000360 ab 34 63 bd aa 2d 5f 3d e3 9f 19 3d 1a 9e 34 be
       -0.05547015 0.054486908 0.037505995 -0.17638436
000370 26 97 6e 3d 92 46 d4 bd dc bc 6f 3d 27 4c 14 be
       0.058249615 -0.10365023 0.05852972 -0.14482175
000380 8c 12 1d 3d f8 97 25 3e 52 9e f4 bd 69 f5 53 3e
       0.038347766 0.16171253 -0.1194426 0.20699085
000390 ab 10 a6 bd d0 76 1d 3e b1 5e 1d bc 4e c4 24 bc
       -0.08108648 0.15377355 -0.009605096 -0.010056568
0003a0 21 e3 26 bd 67 05 02 be e6 7e bf 3d b1 7e 4f 3e
       -0.04074395 -0.12697373 0.09350376 0.20263173
0003b0 fb 3d 5e bc 91 f6 e0 3d f0 0f 85 3e 9c 43 2f 3e
       -0.013564582 0.10984529 0.25988722 0.17115635
0003c0 4e 6a 13 bd b9 73 10 3d 1b 9b 0b 3e a9 b5 2e 3d
       -0.035990052 0.03526661 0.13633387 0.042653713
0003d0 f8 8d fb 3c d3 45 b0 3d 44 c9 49 3e eb 06 5a bd
       0.030707344 0.08607068 0.19705683 -0.053229254
0003e0 6e 8b 88 3d 2e e9 04 be 64 ed b8 bd 13 b2 36 3c
       0.06667219 -0.12979576 -0.09029654 0.011150855
0003f0 3d db 9e 3d 58 c1 f6 3c 0f ab 86 bd 3b 53 b2 bd
       0.0775666 0.03012149 -0.065755956 -0.08707281

B0__31 f4 [1, 256]
000000 02 ff 4f 3d 6c 83 a0 3c d9 db d4 3c 79 db aa bc
       0.050780304 0.019593917 0.025983738 -0.020856606
000010 ef 51 66 bc 72 8b 13 3d be 98 e0 bc 23 78 36 3c
       -0.01405762 0.036021657 -0.027416583 0.011137041
000020 64 cb 01 3d 10 be db 3b 17 36 35 3d ca 4a 06 3d
       0.03168811 0.006706007 0.044241037 0.03278617
000030 a9 ad 87 bc 9a dc 17 3d 9a a0 a2 bc a9 a3 2c 3d
       -0.0165623 0.037075616 -0.019851971 0.042148266
000040 d8 c1 86 bc 02 dc 50 3d 16 dd 13 3d 56 89 bc bc
       -0.016449854 0.050991066 0.036099516 -0.023014706
000050 ff 59 dc 3b df 8b 64 bc eb ae 11 3d 94 7b ce bc
       0.0067245956 -0.0139493635 0.035567205 -0.025205411
000060 95 65 4b bb 86 b3 87 3c 38 6d 80 bc e1 14 a0 3c
       -0.003103589 0.016565096 -0.01567708 0.019541206
000070 d3 ec 29 bc ce 25 32 3d 45 16 b5 bc 0d 14 de 3c
       -0.010371405 0.043493085 -0.022105346 0.02710917
000080 6f 6d 54 3d 37 5b 9f 3c bc 8b e0 3c 8c 04 aa bc
       0.051862177 0.019452674 0.02741038 -0.020754121
000090 82 e7 52 bc b3 99 16 3d e6 1b ea bc 1d ad 16 3c
       -0.012872579 0.036767673 -0.028577756 0.009196547
0000a0 45 25 00 3d ee f7 0d 3c 91 18 3d 3d 21 2e 03 3d
       0.031285543 0.008665068 0.046166006 0.032026414
0000b0 f7 a2 86 bc 3b cd 14 3d 13 bd a2 bc 6e cf 29 3d
       -0.01643513 0.036328536 -0.019865548 0.041457586
0000c0 81 e2 86 bc 0e ce 4d 3d f3 6e 12 3d 05 1d bd bc
       -0.016465427 0.050245337 0.03575034 -0.023085127
0000d0 10 46 59 3c 41 bd 64 bc fc a4 0f 3d 66 c3 ce bc
       0.013261333 -0.013961137 0.03506945 -0.025239658
0000e0 f6 b2 3f bb 47 6c 95 3c 59 5d 80 bc 50 4a a9 3c
       -0.0029250956 0.018240107 -0.015669512 0.020665318
0000f0 6e 16 29 bc 6e 12 3e 3d 30 e0 b4 bc a6 54 da 3c
       -0.010320289 0.046404295 -0.022079557 0.026651692
000100 0c e9 85 3f aa eb 81 3f ed 6a 83 3f 67 7c 79 3f
       1.0461745 1.0150044 1.0267006 0.9745545
000110 f0 48 7c 3f 0f 68 84 3f 3b 9a 7a 3f ad ca 7f 3f
       0.98548794 1.0344256 0.97891587 0.99918634
000120 37 5f 84 3f ae 72 80 3f 02 24 85 3f 54 cd 83 3f
       1.0341557 1.0034997 1.0401614 1.0297036
000130 4f 31 7c 3f f4 1d 84 3f f4 fa 7a 3f c7 29 85 3f
       0.9851274 1.0321641 0.98039174 1.0403374
000140 7c af 7b 3f ca 65 86 3f b1 5a 84 3f 97 fe 79 3f
       0.9831464 1.0499814 1.0340177 0.976541
000150 20 e7 7e 3f 4d 15 7c 3f 4b 5d 84 3f 80 92 79 3f
       0.9957142 0.9847 1.0340971 0.97489166
000160 5e 28 81 3f c4 25 81 3f e5 05 7c 3f 82 ba 81 3f
       1.0090444 1.008965 0.98446494 1.0135043
000170 88 58 7e 3f 58 07 85 3f 83 99 7a 3f 5a ac 83 3f
       0.9935384 1.0392866 0.9789049 1.0286973
000180 95 2a 1d 3d c7 fe b9 3c 23 23 17 3d ce 6e 99 bc
       0.038370688 0.022704495 0.036898743 -0.018729594
000190 44 56 b2 3b 0a 41 22 3d 06 e0 10 bc bb 6c 95 3c
       0.0054424126 0.039612807 -0.008842474 0.018240323
0001a0 4a f0 07 3d 4e dc 58 3c 8f 73 23 3d 29 85 37 3d
       0.033188142 0.0132361185 0.039905127 0.044804726
0001b0 dd a6 b0 bc 5c 2a 37 3d 88 f5 c8 bc 7c bf 0d 3d
       -0.021563942 0.04471813 -0.02453114 0.03460644
0001c0 36 2d 92 bc 1d 2f fb 3c 99 9f 28 3d 9d d9 cd bc
       -0.017843824 0.030662114 0.04116783 -0.02512818
0001d0 1a f4 06 bd fb 45 88 bc 16 96 2d 3d 45 74 ed bc
       -0.032947637 -0.016634932 0.04237946 -0.028986106
0001e0 e4 a4 03 3c 28 a5 a3 3c d6 f8 97 bc 5a db cf 3c
       0.008034918 0.019976214 -0.018551271 0.02537315
0001f0 13 0b df b8 d9 0a 2d 3d df 16 d3 bc 9c 4f 27 3d
       -0.00010635531 0.042246673 -0.025767742 0.040847406
000200 00 00 00 00 00 00 00 00 00 00 00 00 00 00 00 00
       0.0 0.0 0.0 0.0
000210 00 00 00 00 00 00 00 00 00 00 00 00 00 00 00 00
       0.0 0.0 0.0 0.0
000220 00 00 00 00 00 00 00 00 00 00 00 00 00 00 00 00
       0.0 0.0 0.0 0.0
000230 00 00 00 00 00 00 00 00 00 00 00 00 00 00 00 00
       0.0 0.0 0.0 0.0
000240 00 00 00 00 00 00 00 00 00 00 00 00 00 00 00 00
       0.0 0.0 0.0 0.0
000250 00 00 00 00 00 00 00 00 00 00 00 00 00 00 00 00
       0.0 0.0 0.0 0.0
000260 00 00 00 00 00 00 00 00 00 00 00 00 00 00 00 00
       0.0 0.0 0.0 0.0
000270 00 00 00 00 00 00 00 00 00 00 00 00 00 00 00 00
       0.0 0.0 0.0 0.0
000280 00 00 00 00 00 00 00 00 00 00 00 00 00 00 00 00
       0.0 0.0 0.0 0.0
000290 00 00 00 00 00 00 00 00 00 00 00 00 00 00 00 00
       0.0 0.0 0.0 0.0
0002a0 00 00 00 00 00 00 00 00 00 00 00 00 00 00 00 00
       0.0 0.0 0.0 0.0
0002b0 00 00 00 00 00 00 00 00 00 00 00 00 00 00 00 00
       0.0 0.0 0.0 0.0
0002c0 00 00 00 00 00 00 00 00 00 00 00 00 00 00 00 00
       0.0 0.0 0.0 0.0
0002d0 00 00 00 00 00 00 00 00 00 00 00 00 00 00 00 00
       0.0 0.0 0.0 0.0
0002e0 00 00 00 00 00 00 00 00 00 00 00 00 00 00 00 00
       0.0 0.0 0.0 0.0
0002f0 00 00 00 00 00 00 00 00 00 00 00 00 00 00 00 00
       0.0 0.0 0.0 0.0
000300 00 00 00 00 00 00 00 00 00 00 00 00 00 00 00 00
       0.0 0.0 0.0 0.0
000310 00 00 00 00 00 00 00 00 00 00 00 00 00 00 00 00
       0.0 0.0 0.0 0.0
000320 00 00 00 00 00 00 00 00 00 00 00 00 00 00 00 00
       0.0 0.0 0.0 0.0
000330 00 00 00 00 00 00 00 00 00 00 00 00 00 00 00 00
       0.0 0.0 0.0 0.0
000340 00 00 00 00 00 00 00 00 00 00 00 00 00 00 00 00
       0.0 0.0 0.0 0.0
000350 00 00 00 00 00 00 00 00 00 00 00 00 00 00 00 00
       0.0 0.0 0.0 0.0
000360 00 00 00 00 00 00 00 00 00 00 00 00 00 00 00 00
       0.0 0.0 0.0 0.0
000370 00 00 00 00 00 00 00 00 00 00 00 00 00 00 00 00
       0.0 0.0 0.0 0.0
000380 00 00 00 00 00 00 00 00 00 00 00 00 00 00 00 00
       0.0 0.0 0.0 0.0
000390 00 00 00 00 00 00 00 00 00 00 00 00 00 00 00 00
       0.0 0.0 0.0 0.0
0003a0 00 00 00 00 00 00 00 00 00 00 00 00 00 00 00 00
       0.0 0.0 0.0 0.0
0003b0 00 00 00 00 00 00 00 00 00 00 00 00 00 00 00 00
       0.0 0.0 0.0 0.0
0003c0 00 00 00 00 00 00 00 00 00 00 00 00 00 00 00 00
       0.0 0.0 0.0 0.0
0003d0 00 00 00 00 00 00 00 00 00 00 00 00 00 00 00 00
       0.0 0.0 0.0 0.0
0003e0 00 00 00 00 00 00 00 00 00 00 00 00 00 00 00 00
       0.0 0.0 0.0 0.0
0003f0 00 00 00 00 00 00 00 00 00 00 00 00 00 00 00 00
       0.0 0.0 0.0 0.0
